onnx_mnist.onnx (onnx, 141056 bytes, 6 tensors)

dense_1_2/kernel:0 f4 [1600, 10]
00000000: 7b43 44bd e273 4cbd f348 b33c 74f0 0bbd
00000010: 70da dfbd 7c93 2dbd c5f7 e13d bae0 8a3d
00000020: 7a7f ddbd 85d0 85be 4c1c c83d ad04 cb3d
00000030: 4908 a7bc 35ff ccbc 997d 0cbd cef3 8bbc
00000040: e75e 21be 99ee f13c ed07 34bd 595e 7abd
00000050: b054 c7bb 5b65 70be 55f8 313e 9442 80bd
00000060: e051 53be d4a9 89bc 1380 443e b2c7 7e3b
00000070: d78a 083d 9baa 2c3d dec4 39bd 504a 0d3c
00000080: 8e0b 8d3c a9e6 1c3e fa36 acbd d989 1ebe
00000090: eb9b 333d 477f b03d ae2c edbc 14be fabd
000000a0: af3a 90bd f298 b43d 32aa 35be f153 9d3c
000000b0: 3eb3 d63d fcb9 ea3b 4823 2ebd 94c6 9d3d
000000c0: 0c35 e63b 5e68 fcbd b997 7d3d a7bc 88be
000000d0: 9b77 5f3a dbd4 033d 74eb 7abd 0a1a 413d
000000e0: 4f80 3f3e c333 623c 2d05 0c3d 03f7 82bd
000000f0: 987b cdbd 306b 09be a1ce 883b 8e49 a73c
00000100: 774d 11be f205 3a3c 6338 013e 5cb4 eebd
00000110: 662a 163d 6530 97bd cf17 fdbd d80d 043c
00000120: 4496 cbbd 4c88 c9bb a793 08be ebe3 8ebd
00000130: 0ede 393e 0fd2 79bd c671 a93d 6426 ebbd
00000140: c704 bbbc 65fd ff3c c864 9cbd c0ba 293d
00000150: bc83 afbd 9036 82bd d324 e93d d427 a3bd
00000160: ab7c f33d 25fc a4bd 0999 2abc 292c 353e
00000170: 0bfa f2bd 3e1a 903d e3e9 763c eed1 3c3d
00000180: b833 6c3d 6c7b 30bd 65b3 30bd 0648 63be
00000190: 2b54 0d3d ff8b 6cbd 32ca 31bd e6e3 4b3d
000001a0: b8e0 193d 681b 0ebe 6ab2 973d 7a41 85bd
000001b0: 421d eb3d db63 1cbd 0b2d c6bd 4d9f 01bd
000001c0: 03f9 933c 78fe 9e3c cb41 933d 55db 843c
000001d0: 7a94 d23d 8f85 3f3d c35b afbd afeb 0fbe
000001e0: 9a51 b53d 012a f1bd 8f0b 7b3c 8c10 763d
000001f0: f7bf 473c 041e b4bd 7bf8 91be 84eb 0b3d
00000200: c712 0dbd 7a25 2f3d ac9f 52be 5979 da3c
00000210: 7cb1 d3bc 0af2 2bbc 7c5e 65bd 4de7 0bbe
00000220: 2f66 663e 4be7 85bd b426 d63d c4e3 50be
00000230: c981 0a3e 772f 46bd 7349 8cbd 56d0 a43d
00000240: b520 2cbe 7260 c4bc 5e94 a4bc 737a 08bb
00000250: 07b0 0d3d 2f58 babc 6f15 d5bd a428 20bd
00000260: 177f b4bd a350 d7bc 8dd4 8e3b 3158 c73c
00000270: c1d6 1e3e 35dd 8c3d 80c1 e1bb f8cd d0bd
00000280: 5abf fcbd e4e6 56bd cf55 bebd 251d fd3c
00000290: c471 95bd 25bc cebc b03e 533e 85cd 043e
000002a0: 8d1e cf3d 4c75 b5bd 5f56 b7bc 025b 0d3c
000002b0: 57ca 90bd fc52 933d 9757 6c3d 1f56 dcbc
000002c0: 0ad1 95b7 93c5 243d 3119 2fbd fb22 fdbb
000002d0: bdad f5bc 86ca 893d f0ef 87b9 5ecb c2bb
000002e0: 8eca dabd 4efe 72bd c977 413e efd5 29be
000002f0: aa10 c6bc 863f 8ebd c394 4cbd 2538 4fbd
00000300: ba78 0b3d af9d e23c cff7 5b3d 1728 59bd
00000310: b3c2 a43c bae2 ab3d c5cc 553c c4ef a5bd
00000320: e908 f4bc f563 a6bc 5562 db3c 3a1b 30bd
00000330: 9a53 cb3d 9c35 fdbc 5f1e 21bd 95bd f73d
00000340: c708 94bd 26b9 a5bc 03fb 07be 2e18 44bc
00000350: 0bd6 0b3d 4d8e dd3d 3ec9 2abe e13d 7cbe
00000360: 68b4 cc3d 7493 1dbd 703d b9bb 5d8f 38bd
00000370: 588e 05bd 4577 883c 4d5f 01be 58e5 363c
00000380: 60e6 52bd 13ab 0a3d 6751 dbbd 94c4 ea3d
00000390: 747c 02bc e0c6 863c 1efa 6fbc 5fdf 35be
000003a0: 9dd1 d73b 9cb2 6b3d 4e83 ce3c a8b5 62be
000003b0: ea96 9abd 9b27 08be f8bd 9d3d e089 d53c
000003c0: 539a 13be dcd6 fe3c 0e98 17be 4547 0d3e
000003d0: 4125 e5bd 41bc 3fbd 7f08 1d3e e8cb 53bc
000003e0: 0054 703d c16d 55be f1a5 ebbd ee94 ffbd
000003f0: df8a 923d e2c0 ad3c 132d 53bc 9372 0ebe
-0.047915917 -0.049915202 0.02188537 -0.03416486 -0.109303355 -0.04237698 0.110335864 0.067811444
-0.1081533 -0.2613565 0.09771022 0.09913001 -0.020389693 -0.025024036 -0.034299467 -0.017084029
-0.15758859 0.029532718 -0.04395287 -0.061125133 -0.0060830936 -0.23476164 0.17379887 -0.06262699
-0.20636702 -0.016804613 0.19189481 0.0038876352 0.033335533 0.04215489 -0.045353763 0.0086236745
0.017217424 0.15322365 -0.084089234 -0.15482272 0.043849867 0.08618026 -0.028951969 -0.12243286
-0.07042443 0.088182345 -0.17740706 0.019205065 0.104834065 0.0071632843 -0.042514116 0.077038914
0.0070253666 -0.12324594 0.061912272 -0.2670643 0.00085245975 0.032185417 -0.0612597 0.047143973
0.1870129 0.013806286 0.034184624 -0.0639477 -0.10033339 -0.13419795 0.0041750227 0.020420816
-0.14189707 0.011353957 0.12619166 -0.116554946 0.036661528 -0.073822774 -0.12358057 0.008059941
-0.0994077 -0.006150281 -0.13337575 -0.06977066 0.18151113 -0.060991343 0.08273654 -0.11481932
-0.022829426 0.031248758 -0.0763641 0.041437864 -0.08570048 -0.06358063 0.11383977 -0.07966581
0.11889013 -0.08055905 -0.010412463 0.17692627 -0.11864098 0.07036255 0.015070411 0.046098642
0.05766651 -0.043086454 -0.043139834 -0.22195444 0.034504097 -0.0577507 -0.04340572 0.049777888
0.037567824 -0.13877642 0.07407077 -0.06506629 0.1148019 -0.038181167 -0.0967656 -0.03164606
0.018063074 0.01940845 0.071902834 0.016217867 0.10282226 0.04675823 -0.08562424 -0.1405475
0.08853455 -0.1177559 0.01532258 0.060074374 0.012191764 -0.087947875 -0.28509888 0.034160152
-0.034441736 0.04276035 -0.20568722 0.026669191 -0.025841467 -0.010494718 -0.05599831 -0.13662453
0.22499917 -0.06538256 0.10456601 -0.20399386 0.13526072 -0.04838511 -0.06849947 0.080475494
-0.16809352 -0.02397177 -0.020090278 -0.0020824939 0.0345917 -0.022747127 -0.10404479 -0.039101258
-0.08813303 -0.026283568 0.004358834 0.024334045 0.1551161 0.068781294 -0.006889522 -0.101955354
-0.12341185 -0.05246629 -0.092937104 0.030897686 -0.0729709 -0.025236199 0.20629382 0.12969024
0.10113249 -0.08860263 -0.022380052 0.008627655 -0.07069843 0.071935624 0.05770072 -0.026896534
-1.7859526e-05 0.040227484 -0.042748634 -0.0077251173 -0.029990071 0.067280814 -0.00025927974 -0.0059446534
-0.106831655 -0.059324555 0.1889335 -0.16585515 -0.024177868 -0.0694571 -0.049946558 -0.050590653
0.03405068 0.02766308 0.053703126 -0.05301675 0.020112371 0.08392854 0.013049309 -0.08102372
-0.029789405 -0.020311335 0.026780287 -0.042994715 0.09928055 -0.030909352 -0.039335605 0.12096707
-0.07228237 -0.020229887 -0.13279347 -0.0119686555 0.034139674 0.10818157 -0.1667833 -0.2463298
0.09995347 -0.0384707 -0.005653076 -0.045058597 -0.032606453 0.016658435 -0.1263401 0.011163078
-0.051489234 0.033854555 -0.10708886 0.114632756 -0.007964242 0.016452253 -0.014647035 -0.1776099
0.006586267 0.057543382 0.025209095 -0.22139609 -0.07548316 -0.13296358 0.07702249 0.02606672
-0.14414339 0.031108312 -0.14804098 0.13796718 -0.11188746 -0.046810392 0.15335272 -0.012927033
0.05867386 -0.20842649 -0.1150626 -0.12479578 0.07155394 0.021210138 -0.0128891645 -0.13910894

dense_1_2/bias:0 f4 [10]
00000000: 5ae3 9d3c e8b2 0d3e 703f c2bc 60c5 58bd
00000010: 6d17 b6bd 8ff3 9bbc af34 fabc df5a d63c
00000020: 836a e23c 1f87 2ebb
0.019273449 0.13837779 -0.02371189 -0.052922606 -0.08891187 -0.019037036 -0.0305427 0.026166378
0.02763868 -0.0026630831

conv2d_3_1/kernel:0 f4 [64, 32, 3, 3]
00000000: de68 1bbd 33f7 1ebd 78e6 69bd 5b68 703b
00000010: a15a d5bc c64a 193d b665 e4bd 8c8b bbbd
00000020: b30f 193d dc94 123c da38 9a3d 11a3 443d
00000030: 2ae9 1fbe 78e2 fabc f7be 84bd a69f e5bd
00000040: 1a19 4e3b 891e 103c 5620 14be 2956 90bd
00000050: f785 96bd 96cd b53d 2a01 943d b574 f8bc
00000060: 40a4 5fbd f2cf 5e3c c993 59bc 3153 c53b
00000070: b803 5f3c 2528 3f3d 9b11 363c dae4 eb3b
00000080: 42c3 55bc d2ea 84bc 54df dbbb c19e ffbd
00000090: a1bf 05bd 0083 3b3d 8669 a5bd 7e97 7fbd
000000a0: bc56 bf3d 0a38 d0b7 a1fb 043e 32d2 2ebc
000000b0: 72ad c13b 2e47 13bb b6a7 0f3d 9774 f83d
000000c0: 23d3 09bd ccad be3a 7c7c 31be a0c6 723d
000000d0: a664 80be 81b8 43be 1bd7 9cbd 064d 03be
000000e0: 4135 6fbd 0c9a e13d bb33 85bd d319 9e3d
000000f0: c944 f03d bdb4 253d 75ff b2bc 5011 85bd
00000100: 76de c1be d0e0 83be 57ae 363e ad74 88bd
00000110: 0738 0c3e 7157 8c3e 18a9 a23d a94d 103e
00000120: 39c0 a1bd 349d 093d c273 27bd c22d 0a3d
00000130: 0d42 c83d 8f8c 9ebc e447 c3bd 196a b7bd
00000140: a28b 583d 3b3c edbd 0fe6 e9bb b407 cdbc
00000150: 94f1 953d 7d7b 7dbd cc78 9e3d 508d 0b3b
00000160: cc9c 3abc 2631 2fbc 609e cf3d 5554 893d
00000170: fd29 083e 2505 07be daca 15bd 3780 2e3d
00000180: b848 9abe 888f b7be 06d7 e43c 7e51 55bd
00000190: 6153 e03d 8bb7 cc3d 08c8 113d 549e fbbc
000001a0: b34b c6bc 2a31 2fbe d779 adbe 6b4c 56be
000001b0: 6f7b 843d 9720 073e df26 a93d 9a11 f43c
000001c0: 0bb3 efbc 983f 10be 80ac 123e 2e07 0cbe
000001d0: 6275 72bd ea66 a1bc 695c 86bc c808 1cbe
000001e0: 65fd 4abc 7669 403d 91bc 93bc 0f73 87bd
000001f0: e1de 483d 5112 aabd 913a 393b 7414 24be
00000200: 8a23 2abe f789 c43d 60fb c3bc cc01 383d
00000210: 14fb 9b3d 811b c93d 55dc c6ba 864a b1bd
00000220: a079 7b3a 2803 70bd c518 ea3d b521 e23c
00000230: 7e80 5fbd e6d0 e9bd 6887 393c 9f4e bc3d
00000240: d7ef 24bd 29b9 85bd f72e ef3b 91d8 323d
00000250: ccbc 0f3e b7aa 1fbd c63b abbd fa13 99bc
00000260: c941 3c3d c9a0 0abc 82c9 9fbd 0242 f2bd
00000270: 7634 56bb 4437 2dbe ea73 293b 88b6 69bd
00000280: d300 47bd d386 943d 0a3c c43c 9f1a 55bd
00000290: 3734 cdbc ddd2 ad3b f2fd 41bd 8c25 3c3d
000002a0: 631e babd d86e 13bd 6a9f 16bd 23ae 043c
000002b0: ed39 9dbd 85b6 8abc 4d7f c43c fe95 6e3c
000002c0: c4bf 9e3d 5ae4 5fbc c565 be3b 56e6 173d
000002d0: 7ca4 a1bd edc4 073e a3c4 d73d 1348 ffbc
000002e0: a408 e63d 6cf7 b33c 6341 e3bd 71c9 5dbe
000002f0: 2397 4dbe 95c0 d8bc 0c31 d03b 872d 7e3e
00000300: 8179 4cbd a826 8f3b f50d 113d ae42 d3bd
00000310: d75a 9bbe b967 9cbd 9143 be3c 321d 11bc
00000320: 9794 d8bd 7dc2 41bd 8bb5 21be 8af6 08bd
00000330: 344b da3b 7785 f6bd 2f60 bb3c 4a44 13bd
00000340: fa4f 78bd 2dd7 303b cb19 5abb 8d38 a8bd
00000350: 5dee 9ebd f631 b5bc 1778 febd 6a9f 793d
00000360: 70f2 76bc e085 68bc 2307 813d 9f54 19be
00000370: 8f53 ed3c 64d1 4dbc 27b3 b4be 4c56 d4be
00000380: dc84 95be 78e0 c03b f88f 6d3b 8bf6 ba3b
00000390: 6f85 a13d 2606 ac3d 9a4a 853d ff78 8fbb
000003a0: 0860 b1bd 3b4d 1abd cab3 af3d 1194 ca3c
000003b0: 79b0 e4bd 0584 ab3c bcbd 493c deb9 dfbc
000003c0: 1700 9ebd e385 dcbd 9128 39bd 8eb4 1ebe
000003d0: 0ae8 54bd 35f8 e8bd ac27 263e 4f9c 5bbb
000003e0: 3df2 ab3d 6224 6b3d da0e 0b3e 23c3 6b3d
000003f0: 79f8 293d 6079 08bd 2ab6 dabc 6055 86bd
-0.037941806 -0.038809966 -0.057104558 0.0036683294 -0.026044192 0.037424825 -0.11152212 -0.09157476
0.037368488 0.008946624 0.07530375 0.048007075 -0.15616289 -0.030625567 -0.06481736 -0.11212091
0.0031448067 0.008796343 -0.1446546 -0.07047684 -0.073497705 0.08877103 0.072267845 -0.030329088
-0.0546 0.013599383 -0.013279864 0.00602188 0.013611726 0.046669144 0.011112596 0.007198912
-0.013047041 -0.016225252 -0.0067099724 -0.12481452 -0.032653455 0.04577923 -0.080767676 -0.062400334
0.09342715 -2.4821627e-05 0.12986614 -0.010670232 0.005910569 -0.0022472846 0.03507205 0.12131613
-0.03364862 0.0014547645 -0.17332643 0.059271455 -0.2507679 -0.19113351 -0.076582156 -0.12822351
-0.058400396 0.1101571 -0.065040074 0.07719769 0.1173187 0.04045557 -0.021850327 -0.06497443
-0.37865037 -0.25757456 0.17839943 -0.06662879 0.13693248 0.27410462 0.07942408 0.14092125
-0.07897992 0.033597186 -0.04088188 0.033735044 0.09778223 -0.019354133 -0.095351964 -0.089557834
0.05286754 -0.11583754 -0.007138021 -0.025028087 0.07321468 -0.061885346 0.07737884 0.0021293946
-0.011389922 -0.01069287 0.101376295 0.06705538 0.13297267 -0.13185556 -0.036570407 0.042602744
-0.30133605 -0.35851693 0.027934562 -0.05207967 0.10953403 0.099959455 0.035591155 -0.030715145
-0.024206018 -0.17108598 -0.3388202 -0.20927589 0.064688556 0.13196026 0.08259367 0.02979355
-0.029260179 -0.14086759 0.14323616 -0.13674614 -0.059193976 -0.019702394 -0.016401486 -0.15237725
-0.0123895155 0.046975575 -0.018034251 -0.066137426 0.04904068 -0.08304275 0.0028263668 -0.16023427
-0.1661512 0.09596627 -0.023923576 0.04492359 0.07616249 0.09819699 -0.0015171865 -0.08656792
0.00095930137 -0.05859676 0.11430506 0.027603963 -0.0545659 -0.11416797 0.011323787 0.09194683
-0.04026779 -0.06529457 0.0072993 0.043663565 0.14036864 -0.038981166 -0.0836101 -0.018686283
0.045961175 -0.008461186 -0.078021064 -0.11828996 -0.0032685078 -0.16915613 0.0025856444 -0.05705884
-0.04858477 0.07252278 0.02395441 -0.05202734 -0.025049312 0.005304678 -0.04736132 0.045934245
-0.09087827 -0.03599438 -0.036773123 0.008098158 -0.07677064 -0.016932735 0.023986483 0.014562128
0.0775142 -0.013665283 0.0058104717 0.0370849 -0.07892701 0.13258715 0.10535552 -0.031162297
0.11232117 0.021968566 -0.11096456 -0.21658875 -0.20077185 -0.026459018 0.006353503 0.24822055
-0.049920563 0.004368622 0.0354137 -0.103154525 -0.30342743 -0.07636971 0.023225578 -0.008857058
-0.10575216 -0.04730462 -0.1579191 -0.033438243 0.006661797 -0.12037175 0.022873012 -0.035953797
-0.060623147 0.0026983724 -0.0033279534 -0.08213911 -0.07760308 -0.02211855 -0.12425249 0.060943045
-0.01507245 -0.014192075 0.06300189 -0.14973687 0.028970508 -0.01256213 -0.35292932 -0.4147209
-0.29202926 0.0058861338 0.0036249142 0.0057056597 0.078867786 0.0839961 0.0650837 -0.0043784375
-0.08660895 -0.03767131 0.08579214 0.024728807 -0.11166472 0.020936975 0.012313303 -0.027310308
-0.07714861 -0.10767724 -0.045204703 -0.15498564 -0.051979102 -0.11375467 0.16226071 -0.0033509915
0.08395813 0.057407744 0.13579884 0.057559144 0.041496728 -0.033318877 -0.02669819 -0.06559253

conv2d_3_1/bias:0 f4 [64]
00000000: 2013 b03b 8312 4cbd 0c93 03bd c673 ddbd
00000010: 5535 dcbd 4085 ff3a 28f5 05bc c220 8dbd
00000020: 6970 1cbd 110c 1fbd 1463 99bc 99be 0d3d
00000030: 752a 96bc 6666 8fbd 5076 c6bc a397 733b
00000040: 2602 70bd 3fb7 c0bc 0301 42bd 6a6f 3fbd
00000050: d3cf 9cbd 3e70 51bc 2128 993c 5a88 21be
00000060: 933d 8ebd 3ef4 f5bd 9831 b4bd e923 75bd
00000070: 918e 0bbd 98dc d0bc a739 0ebd d050 65bd
00000080: 952f 2d3c 5805 a33c f854 1dbd d263 04be
00000090: c5ef 18bd 36c7 bdbd d289 01bd 0294 e2bc
000000a0: ad57 c7bb 86bb 30bd dbeb ccbc 827d 8a3a
000000b0: 550d 4e3c 33c5 d0bb 7658 2abe 9130 d2bd
000000c0: d715 233d bc16 17be 9372 1abd dc47 9abd
000000d0: 3564 4a3c b9f0 73bd 9ec3 5d3c 0d76 d7ba
000000e0: 1237 4fbd beaf d4bd c863 6fbc ebac f43c
000000f0: 7112 3ebd c9ab 71bc 2749 2cbd 2ec8 d4bc
0.0053733736 -0.04982234 -0.032122657 -0.10813098 -0.1075236 0.0019494668 -0.008176126 -0.06891014
-0.03819314 -0.038829867 -0.018724002 0.034605596 -0.018330792 -0.07001953 -0.024226338 0.003716924
-0.0585958 -0.023524879 -0.047364246 -0.046737112 -0.07656827 -0.012783108 0.018695893 -0.1577467
-0.06945338 -0.12009476 -0.08798522 -0.0598487 -0.03407151 -0.025495812 -0.03472295 -0.055985272
0.0105704265 0.019900009 -0.03841111 -0.12928703 -0.037338037 -0.09266512 -0.031625576 -0.027658466
-0.00608345 -0.043147586 -0.025014808 0.0010565969 0.012576421 -0.006371164 -0.16635308 -0.102631696
0.03981575 -0.14754766 -0.037706923 -0.07533237 0.012352993 -0.059555743 0.013535408 -0.001643838
-0.05058963 -0.10385083 -0.014611192 0.02986761 -0.046404306 -0.014750429 -0.04206195 -0.02597436

conv2d_2_2/kernel:0 f4 [32, 1, 3, 3]
00000000: 6d10 7a3d 9390 c9bd cbb1 153e 56ab 033e
00000010: 61ca 2f3e d128 22bd 67b6 80bc 2287 d43d
00000020: bc71 41be e8d9 f63e d05c 613e 467e 70be
00000030: 9dec bc3e 1e23 18be e795 17bf e3b5 493e
00000040: 9c53 07bf e660 b23d 222d 933d fbfc 2b3d
00000050: c92a 9b3d 3fb6 ecbc 007c 7eba cff2 f83d
00000060: 8436 333d 2b21 303d 4bba 69be ab1d 093e
00000070: a3d6 90bd ef13 9e3d 4cec 053e 0aeb e8bc
00000080: a472 a93d 9804 493e 60c6 b93d 1213 493c
00000090: 98d9 513e 1830 75be 2dcf c3be 0f1c ac3e
000000a0: ee3a 8bbd 3de6 863d cb14 1f3e 8a21 3abd
000000b0: 8990 443c 12f4 b8bb 7ad3 9fbe b7f3 e6be
000000c0: a8f4 633e f648 153e 432c 6ebe 6cd5 173e
000000d0: 8319 bb3e 9dae 513e cec5 6fbd 97b4 603e
000000e0: 4bda 433d ab05 53be 0b6d 603d 5e91 1a3e
000000f0: 2fd2 73be 6a68 54be 00db 343e a9e0 253d
00000100: ce9b 833e 5797 123f 048d dbbe a603 8abe
00000110: c45f f43e 52fb 97be f105 01bf 79f5 aa3d
00000120: ed5e 873d 77bb a73e bb55 803e 924f c83e
00000130: c65e a93e 20a7 4bbe e7ef a2bd f6af f3be
00000140: cd3c 21bf 8d45 1a3e 4cf8 163e 31d8 03bd
00000150: c07d 4a3d a7e7 053d 4380 e13d 40f3 0dbe
00000160: edd3 c93d 8533 4b3e 6dbb 03bf 42bc 37be
00000170: 12f2 e83d b770 e03d a40a 0e3e ab1c 613e
00000180: 9bbf 063e eb49 88bd ac21 b53d 1f6a 5bbe
00000190: 7a03 a3be 3a95 84be d046 1d3e 7a1c dc3c
000001a0: f57e 2b3d 8dfd d53d ca56 243e 1e95 903e
000001b0: d818 75be 1789 92be 913e a73d beb5 3c3e
000001c0: c588 62be 7b24 b3be fe08 663e a71c 8e3e
000001d0: aba0 003e 5160 08ba bfdc 733e d060 08be
000001e0: 547c 92bc 183d 443e 7d00 4bbe 2d8c 60be
000001f0: 8ae7 7d3e a290 e73d c227 22be 9f33 163e
00000200: cdc0 d43d 1e4d 47be d29b 293e 29bf 6d3c
00000210: 132a abbe 4663 3b3d 6c21 803d b419 7bbe
00000220: c8f6 993d b71f 913e a40a 763e 12a5 803e
00000230: 1ed7 bd3d e613 02be c156 b7be 3334 70be
00000240: 8940 be3d d141 23be 8bc1 32be dddf cd3d
00000250: 79db 853e 2871 843e c661 31be 917b 04be
00000260: 4a97 dfbd e038 d7be 29b8 d13d dc86 4d3e
00000270: 427c 05bf 6972 0e3e 1e56 973e 1f0d 71be
00000280: 4764 3b3e 6360 e43d 18b9 173e da6b eebd
00000290: dea9 9a3d 0145 07be 2a74 873c 3109 a73d
000002a0: 6d62 0c3e b994 933c dca6 8d3c e0ac 6d3d
000002b0: 04b4 c83d dd45 cfbb 5491 20be 8874 503e
000002c0: 31bd d23d f775 96be 7118 38be 91a0 5f3e
000002d0: 1e5d 03be d5e5 f3be ad3f 9dbe 3ce0 ed3d
000002e0: 94ee be3d 9b59 193e d471 a63e 4a8e 5b3e
000002f0: 638e 3c3d 8913 32bf 4c1c 0fbf ee75 18be
00000300: 5488 ecbe f1cf 7abc 3e78 893e cc0c 12be
00000310: 7b6b 013f fc86 bb3e c98b 813e 6920 333d
00000320: d080 aebe d231 8f3e b011 ebbb 471a a9be
00000330: 1ff4 8c3e f45b d43c 2197 7abe 52d0 9bbe
00000340: 9c3c 12bd d424 503d e0f9 eebe 716e 55be
00000350: c242 083e 6656 01bf 8cca c6bc 3ff5 cc3e
00000360: e6ba d7be 4e9c c4be 866f 88bd 03c1 aabd
00000370: 2963 1d3e d079 4a3e db63 8b3e b1c4 a33e
00000380: 24cd e23d bbec 0e3d 3c51 bf3d 5ea3 ec3d
00000390: 9afd 833d 6539 723d d4dc 4d3c 1201 143e
000003a0: 34c5 c73d e89e 5a3c b93c 4c3e 6c94 353c
000003b0: 9971 e8be aa6a 323e 4fd4 583e 0a27 4dbe
000003c0: 8b77 4c3d 2a3e aa3e 4ae0 3d3e 6e65 bf3e
000003d0: a499 7a3e 33e8 d53e e211 b03d 03e4 093e
000003e0: 247d 743d c59b 06bf 105a 03bf f970 bdbe
000003f0: ea9e f6bd 2453 15be 6d32 7ebd e6f7 0fbd
0.06105082 -0.098420285 0.14618604 0.12858328 0.17167045 -0.039589707 -0.015711976 0.10377337
-0.18891042 0.48213124 0.22008061 -0.2348567 0.36899272 -0.14857146 -0.5921311 0.1969829
-0.5286195 0.08709888 0.07186343 0.041989308 0.0757652 -0.028895495 -0.00097078085 0.12155687
0.043753162 0.04300038 -0.22824971 0.13390224 -0.07072189 0.07718646 0.13078421 -0.028432388
0.08273819 0.19630659 0.0907104 0.012272613 0.20493162 -0.23944128 -0.38244 0.33615157
-0.06798349 0.06586883 0.15535276 -0.04544214 0.0119973505 -0.00564433 -0.3121603 -0.45107815
0.22261298 0.14578614 -0.23259072 0.14827508 0.365429 0.20476766 -0.05853825 0.2194389
0.047815602 -0.20607631 0.05479149 0.15094516 -0.23810647 -0.20742956 0.17661667 0.040497456
0.25704807 0.57262176 -0.42881024 -0.2695591 0.47729313 -0.2968393 -0.5039969 0.083476014
0.066099025 0.32760212 0.25065407 0.39123207 0.3308012 -0.19887972 -0.07955914 -0.47595185
-0.629834 0.15065594 0.14743155 -0.032188598 0.04943633 0.032691624 0.11010792 -0.13862324
0.09854875 0.19843872 -0.51457864 -0.17942908 0.11374296 0.10958999 0.13871247 0.21983592
0.13159029 -0.06654724 0.08844313 -0.214272 -0.3183859 -0.258951 0.15359044 0.026869047
0.041869123 0.104487516 0.16048732 0.28238767 -0.23935258 -0.28620216 0.081662305 0.18428704
-0.22122486 -0.3498877 0.22464368 0.27756235 0.1256129 -0.00052023405 0.23814677 -0.13318181
-0.01788155 0.1916393 -0.19824405 -0.21928473 0.24795356 0.113068834 -0.15835479 0.1466813
0.10388336 -0.19463012 0.16563347 0.014510908 -0.33430538 0.04574897 0.06256375 -0.24521524
0.07517773 0.2834451 0.24027497 0.2512594 0.09269546 -0.12702903 -0.35808375 -0.23457412
0.09289653 -0.15943076 -0.17456643 0.10052464 0.26144007 0.2586758 -0.17322454 -0.12937762
-0.10917528 -0.4203558 0.10240204 0.20070976 -0.5214273 0.13910832 0.2955789 -0.23540162
0.18299972 0.11151197 0.14816701 -0.11641665 0.07551931 -0.13209917 0.016534884 0.0815605
0.13709421 0.018015252 0.017291479 0.058026195 0.0979996 -0.006325467 -0.15680438 0.20356953
0.10289992 -0.29386875 -0.17978074 0.21838595 -0.1282849 -0.47636285 -0.30712643 0.11615035
0.09322849 0.14975588 0.3250872 0.21440998 0.046034228 -0.6956106 -0.5590255 -0.14888737
-0.4619776 -0.015308366 0.2684955 -0.14262694 0.5055463 0.36626422 0.2530196 0.04373208
-0.3408265 0.27967697 -0.0071737394 -0.3302786 0.2753 0.025922753 -0.24471714 -0.30432373
-0.035702333 0.050816372 -0.46675014 -0.20842911 0.13306716 -0.5052246 -0.024266504 0.40030858
-0.4213478 -0.384005 -0.066618964 -0.08337595 0.15369858 0.1977303 0.2722462 0.31986
0.11074284 0.034893733 0.09341666 0.11554597 0.06444855 0.059136767 0.012564857 0.14453533
0.097544104 0.01334355 0.19945039 0.01108275 -0.45399168 0.17423502 0.2117474 -0.20034423
0.049918693 0.33250552 0.1854259 0.37382072 0.24472672 0.41778716 0.08597161 0.13465886
0.059689656 -0.52581435 -0.513093 -0.37000254 -0.12042029 -0.14582497 -0.06205981 -0.035148524

conv2d_2_2/bias:0 f4 [32]
00000000: e005 84bd d544 833c 6702 90bd 2181 d8bd
00000010: b3ed 82bd 1e6e c8bc dc28 61bd fa01 a6bb
00000020: d452 2abc b306 b4bd ceca c5bc 8d8f 80bc
00000030: 25d8 543d 119b 3fbe 57e5 2fbc 9e79 1dbc
00000040: 73a7 aebc 1994 57bd 4c17 42bd 186a a9bc
00000050: c50e bbbb 7b99 803b 207e 643c c048 313e
00000060: 4e43 b5bc 8cc4 b6bd 7293 4fbe b48d 3e3d
00000070: 8867 78bc c11b 0dbd 6530 bebd f328 4bbd
-0.06446433 0.016024033 -0.07031708 -0.105715044 -0.06392994 -0.02446657 -0.054970607 -0.0050661536
-0.010395724 -0.0879034 -0.024144556 -0.01569345 0.051963944 -0.18711497 -0.010735831 -0.009611515
-0.02132008 -0.05263147 -0.0473855 -0.020680472 -0.005708548 0.0039245463 0.013946086 0.17312908
-0.02212682 -0.08924207 -0.2027109 0.046521857 -0.0151614025 -0.034450296 -0.09286574 -0.0495996
